…
2018-02-23 18:11:56.522961: I tensorflow/core/common_runtime/gpu/gpu_device.cc:1105] Found device 0 with properties: 
name: GeForce GTX TITAN X major: 5 minor: 2 memoryClockRate(GHz): 1.076
pciBusID: 0000:05:00.0
totalMemory: 11.92GiB freeMemory: 11.80GiB
2018-02-23 18:11:56.522996: I tensorflow/core/common_runtime/gpu/gpu_device.cc:1195] Creating TensorFlow device (/device:GPU:0) -> (device: 0, name: GeForce GTX TITAN X, pci bus id: 0000:05:00.0, compute capability: 5.2)
_________________________________________________________________
Layer (type)                 Output Shape              Param #   
=================================================================
conv2d_1 (Conv2D)            (None, 100, 100, 32)      896       
_________________________________________________________________
batch_normalization_1 (Batch (None, 100, 100, 32)      128       
_________________________________________________________________
gaussian_noise_1 (GaussianNo (None, 100, 100, 32)      0         
_________________________________________________________________
activation_1 (Activation)    (None, 100, 100, 32)      0         
_________________________________________________________________
max_pooling2d_1 (MaxPooling2 (None, 50, 50, 32)        0         
_________________________________________________________________
conv2d_2 (Conv2D)            (None, 50, 50, 32)        9248      
_________________________________________________________________
batch_normalization_2 (Batch (None, 50, 50, 32)        128       
_________________________________________________________________
gaussian_noise_2 (GaussianNo (None, 50, 50, 32)        0         
_________________________________________________________________
activation_2 (Activation)    (None, 50, 50, 32)        0         
_________________________________________________________________
max_pooling2d_2 (MaxPooling2 (None, 25, 25, 32)        0         
_________________________________________________________________
conv2d_3 (Conv2D)            (None, 25, 25, 32)        9248      
_________________________________________________________________
batch_normalization_3 (Batch (None, 25, 25, 32)        128       
_________________________________________________________________
gaussian_noise_3 (GaussianNo (None, 25, 25, 32)        0         
_________________________________________________________________
activation_3 (Activation)    (None, 25, 25, 32)        0         
_________________________________________________________________
max_pooling2d_3 (MaxPooling2 (None, 12, 12, 32)        0         
_________________________________________________________________
conv2d_4 (Conv2D)            (None, 12, 12, 32)        9248      
_________________________________________________________________
batch_normalization_4 (Batch (None, 12, 12, 32)        128       
_________________________________________________________________
gaussian_noise_4 (GaussianNo (None, 12, 12, 32)        0         
_________________________________________________________________
activation_4 (Activation)    (None, 12, 12, 32)        0         
_________________________________________________________________
max_pooling2d_4 (MaxPooling2 (None, 6, 6, 32)          0         
_________________________________________________________________
conv2d_5 (Conv2D)            (None, 6, 6, 32)          9248      
_________________________________________________________________
batch_normalization_5 (Batch (None, 6, 6, 32)          128       
_________________________________________________________________
gaussian_noise_5 (GaussianNo (None, 6, 6, 32)          0         
_________________________________________________________________
activation_5 (Activation)    (None, 6, 6, 32)          0         
_________________________________________________________________
max_pooling2d_5 (MaxPooling2 (None, 3, 3, 32)          0         
_________________________________________________________________
conv2d_6 (Conv2D)            (None, 3, 3, 32)          9248      
_________________________________________________________________
batch_normalization_6 (Batch (None, 3, 3, 32)          128       
_________________________________________________________________
gaussian_noise_6 (GaussianNo (None, 3, 3, 32)          0         
_________________________________________________________________
activation_6 (Activation)    (None, 3, 3, 32)          0         
_________________________________________________________________
max_pooling2d_6 (MaxPooling2 (None, 1, 1, 32)          0         
_________________________________________________________________
flatten_1 (Flatten)          (None, 32)                0         
_________________________________________________________________
dense_1 (Dense)              (None, 128)               4224      
_________________________________________________________________
activation_7 (Activation)    (None, 128)               0         
_________________________________________________________________
dropout_1 (Dropout)          (None, 128)               0         
_________________________________________________________________
dense_2 (Dense)              (None, 2)                 258       
_________________________________________________________________
activation_8 (Activation)    (None, 2)                 0         
=================================================================
Total params: 52,386
Trainable params: 52,002
Non-trainable params: 384
_________________________________________________________________
Epoch 1/100
53/52 [==============================] - 24s 453ms/step - loss: 0.5419 - acc: 0.7612 - val_loss: 0.4700 - val_acc: 0.7752
Epoch 2/100
53/52 [==============================] - 23s 435ms/step - loss: 0.4200 - acc: 0.7894 - val_loss: 0.5200 - val_acc: 0.7450
…
