…
2018-02-23 14:14:17.190541: I tensorflow/core/common_runtime/gpu/gpu_device.cc:1105] Found device 0 with properties: 
name: GeForce GTX TITAN X major: 5 minor: 2 memoryClockRate(GHz): 1.076
pciBusID: 0000:05:00.0
totalMemory: 11.92GiB freeMemory: 11.80GiB
2018-02-23 14:14:17.190577: I tensorflow/core/common_runtime/gpu/gpu_device.cc:1195] Creating TensorFlow device (/device:GPU:0) -> (device: 0, name: GeForce GTX TITAN X, pci bus id: 0000:05:00.0, compute capability: 5.2)
_________________________________________________________________
Layer (type)                 Output Shape              Param #   
=================================================================
conv2d_1 (Conv2D)            (None, 100, 100, 32)      896       
_________________________________________________________________
batch_normalization_1 (Batch (None, 100, 100, 32)      128       
_________________________________________________________________
gaussian_noise_1 (GaussianNo (None, 100, 100, 32)      0         
_________________________________________________________________
activation_1 (Activation)    (None, 100, 100, 32)      0         
_________________________________________________________________
max_pooling2d_1 (MaxPooling2 (None, 50, 50, 32)        0         
_________________________________________________________________
conv2d_2 (Conv2D)            (None, 50, 50, 32)        9248      
_________________________________________________________________
batch_normalization_2 (Batch (None, 50, 50, 32)        128       
_________________________________________________________________
gaussian_noise_2 (GaussianNo (None, 50, 50, 32)        0         
_________________________________________________________________
activation_2 (Activation)    (None, 50, 50, 32)        0         
_________________________________________________________________
max_pooling2d_2 (MaxPooling2 (None, 25, 25, 32)        0         
_________________________________________________________________
conv2d_3 (Conv2D)            (None, 25, 25, 64)        18496     
_________________________________________________________________
batch_normalization_3 (Batch (None, 25, 25, 64)        256       
_________________________________________________________________
gaussian_noise_3 (GaussianNo (None, 25, 25, 64)        0         
_________________________________________________________________
activation_3 (Activation)    (None, 25, 25, 64)        0         
_________________________________________________________________
max_pooling2d_3 (MaxPooling2 (None, 12, 12, 64)        0         
_________________________________________________________________
conv2d_4 (Conv2D)            (None, 12, 12, 64)        36928     
_________________________________________________________________
batch_normalization_4 (Batch (None, 12, 12, 64)        256       
_________________________________________________________________
gaussian_noise_4 (GaussianNo (None, 12, 12, 64)        0         
_________________________________________________________________
activation_4 (Activation)    (None, 12, 12, 64)        0         
_________________________________________________________________
max_pooling2d_4 (MaxPooling2 (None, 6, 6, 64)          0         
_________________________________________________________________
conv2d_5 (Conv2D)            (None, 6, 6, 128)         73856     
_________________________________________________________________
batch_normalization_5 (Batch (None, 6, 6, 128)         512       
_________________________________________________________________
gaussian_noise_5 (GaussianNo (None, 6, 6, 128)         0         
_________________________________________________________________
activation_5 (Activation)    (None, 6, 6, 128)         0         
_________________________________________________________________
max_pooling2d_5 (MaxPooling2 (None, 3, 3, 128)         0         
_________________________________________________________________
conv2d_6 (Conv2D)            (None, 3, 3, 128)         147584    
_________________________________________________________________
batch_normalization_6 (Batch (None, 3, 3, 128)         512       
_________________________________________________________________
gaussian_noise_6 (GaussianNo (None, 3, 3, 128)         0         
_________________________________________________________________
activation_6 (Activation)    (None, 3, 3, 128)         0         
_________________________________________________________________
max_pooling2d_6 (MaxPooling2 (None, 1, 1, 128)         0         
_________________________________________________________________
flatten_1 (Flatten)          (None, 128)               0         
_________________________________________________________________
dense_1 (Dense)              (None, 512)               66048     
_________________________________________________________________
activation_7 (Activation)    (None, 512)               0         
_________________________________________________________________
dropout_1 (Dropout)          (None, 512)               0         
_________________________________________________________________
dense_2 (Dense)              (None, 2)                 1026      
_________________________________________________________________
activation_8 (Activation)    (None, 2)                 0         
=================================================================
Total params: 355,874
Trainable params: 354,978
Non-trainable params: 896
_________________________________________________________________
Epoch 1/150
53/52 [==============================] - 23s 441ms/step - loss: 0.6605 - acc: 0.7745 - val_loss: 0.4605 - val_acc: 0.7998
Epoch 2/150
53/52 [==============================] - 22s 421ms/step - loss: 0.4043 - acc: 0.8077 - val_loss: 0.4085 - val_acc: 0.8262
…
